…
20-10-13 17:54:57.538 - INFO: Number of test images in [Set14]: 14
20-10-13 17:54:57.539 - INFO: Dataset [LQGTDataset - B100] is created.
20-10-13 17:54:57.539 - INFO: Number of test images in [B100]: 100
20-10-13 17:54:57.541 - INFO: Dataset [LQGTDataset - Urban100] is created.
20-10-13 17:54:57.541 - INFO: Number of test images in [Urban100]: 100
20-10-13 17:54:57.543 - INFO: Dataset [LQGTDataset - Manga109] is created.
20-10-13 17:54:57.543 - INFO: Number of test images in [Manga109]: 109
20-10-13 17:55:03.185 - INFO: Network G structure: DataParallel - PAN, with parameters: 272,419
20-10-13 17:55:03.185 - INFO: PAN(
  (conv_first): Conv2d(3, 40, kernel_size=(3, 3), stride=(1, 1), padding=(1, 1))
  (SCPA_trunk): Sequential(
    (0): SCPA(
      (conv1_a): Conv2d(40, 20, kernel_size=(1, 1), stride=(1, 1), bias=False)
      (conv1_b): Conv2d(40, 20, kernel_size=(1, 1), stride=(1, 1), bias=False)
      (k1): Sequential(
        (0): Conv2d(20, 20, kernel_size=(3, 3), stride=(1, 1), padding=(1, 1), bias=False)
      )
      (PAConv): PAConv(
        (k2): Conv2d(20, 20, kernel_size=(1, 1), stride=(1, 1))
        (sigmoid): Sigmoid()
        (k3): Conv2d(20, 20, kernel_size=(3, 3), stride=(1, 1), padding=(1, 1), bias=False)
        (k4): Conv2d(20, 20, kernel_size=(3, 3), stride=(1, 1), padding=(1, 1), bias=False)
      )
      (conv3): Conv2d(40, 40, kernel_size=(1, 1), stride=(1, 1), bias=False)
      (lrelu): LeakyReLU(negative_slope=0.2, inplace=True)
    )
    (1): SCPA(
      (conv1_a): Conv2d(40, 20, kernel_size=(1, 1), stride=(1, 1), bias=False)
      (conv1_b): Conv2d(40, 20, kernel_size=(1, 1), stride=(1, 1), bias=False)
      (k1): Sequential(
        (0): Conv2d(20, 20, kernel_size=(3, 3), stride=(1, 1), padding=(1, 1), bias=False)
      )
      (PAConv): PAConv(
        (k2): Conv2d(20, 20, kernel_size=(1, 1), stride=(1, 1))
        (sigmoid): Sigmoid()
        (k3): Conv2d(20, 20, kernel_size=(3, 3), stride=(1, 1), padding=(1, 1), bias=False)
        (k4): Conv2d(20, 20, kernel_size=(3, 3), stride=(1, 1), padding=(1, 1), bias=False)
      )
      (conv3): Conv2d(40, 40, kernel_size=(1, 1), stride=(1, 1), bias=False)
      (lrelu): LeakyReLU(negative_slope=0.2, inplace=True)
    )
    (2): SCPA(
      (conv1_a): Conv2d(40, 20, kernel_size=(1, 1), stride=(1, 1), bias=False)
      (conv1_b): Conv2d(40, 20, kernel_size=(1, 1), stride=(1, 1), bias=False)
      (k1): Sequential(
        (0): Conv2d(20, 20, kernel_size=(3, 3), stride=(1, 1), padding=(1, 1), bias=False)
      )
      (PAConv): PAConv(
        (k2): Conv2d(20, 20, kernel_size=(1, 1), stride=(1, 1))
        (sigmoid): Sigmoid()
        (k3): Conv2d(20, 20, kernel_size=(3, 3), stride=(1, 1), padding=(1, 1), bias=False)
        (k4): Conv2d(20, 20, kernel_size=(3, 3), stride=(1, 1), padding=(1, 1), bias=False)
      )
      (conv3): Conv2d(40, 40, kernel_size=(1, 1), stride=(1, 1), bias=False)
      (lrelu): LeakyReLU(negative_slope=0.2, inplace=True)
    )
    (3): SCPA(
      (conv1_a): Conv2d(40, 20, kernel_size=(1, 1), stride=(1, 1), bias=False)
      (conv1_b): Conv2d(40, 20, kernel_size=(1, 1), stride=(1, 1), bias=False)
      (k1): Sequential(
        (0): Conv2d(20, 20, kernel_size=(3, 3), stride=(1, 1), padding=(1, 1), bias=False)
      )
      (PAConv): PAConv(
        (k2): Conv2d(20, 20, kernel_size=(1, 1), stride=(1, 1))
        (sigmoid): Sigmoid()
        (k3): Conv2d(20, 20, kernel_size=(3, 3), stride=(1, 1), padding=(1, 1), bias=False)
        (k4): Conv2d(20, 20, kernel_size=(3, 3), stride=(1, 1), padding=(1, 1), bias=False)
      )
      (conv3): Conv2d(40, 40, kernel_size=(1, 1), stride=(1, 1), bias=False)
      (lrelu): LeakyReLU(negative_slope=0.2, inplace=True)
    )
    (4): SCPA(
      (conv1_a): Conv2d(40, 20, kernel_size=(1, 1), stride=(1, 1), bias=False)
      (conv1_b): Conv2d(40, 20, kernel_size=(1, 1), stride=(1, 1), bias=False)
      (k1): Sequential(
        (0): Conv2d(20, 20, kernel_size=(3, 3), stride=(1, 1), padding=(1, 1), bias=False)
      )
      (PAConv): PAConv(
        (k2): Conv2d(20, 20, kernel_size=(1, 1), stride=(1, 1))
        (sigmoid): Sigmoid()
        (k3): Conv2d(20, 20, kernel_size=(3, 3), stride=(1, 1), padding=(1, 1), bias=False)
        (k4): Conv2d(20, 20, kernel_size=(3, 3), stride=(1, 1), padding=(1, 1), bias=False)
      )
      (conv3): Conv2d(40, 40, kernel_size=(1, 1), stride=(1, 1), bias=False)
      (lrelu): LeakyReLU(negative_slope=0.2, inplace=True)
    )
    (5): SCPA(
      (conv1_a): Conv2d(40, 20, kernel_size=(1, 1), stride=(1, 1), bias=False)
      (conv1_b): Conv2d(40, 20, kernel_size=(1, 1), stride=(1, 1), bias=False)
      (k1): Sequential(
        (0): Conv2d(20, 20, kernel_size=(3, 3), stride=(1, 1), padding=(1, 1), bias=False)
      )
      (PAConv): PAConv(
        (k2): Conv2d(20, 20, kernel_size=(1, 1), stride=(1, 1))
        (sigmoid): Sigmoid()
        (k3): Conv2d(20, 20, kernel_size=(3, 3), stride=(1, 1), padding=(1, 1), bias=False)
        (k4): Conv2d(20, 20, kernel_size=(3, 3), stride=(1, 1), padding=(1, 1), bias=False)
      )
      (conv3): Conv2d(40, 40, kernel_size=(1, 1), stride=(1, 1), bias=False)
      (lrelu): LeakyReLU(negative_slope=0.2, inplace=True)
    )
    (6): SCPA(
      (conv1_a): Conv2d(40, 20, kernel_size=(1, 1), stride=(1, 1), bias=False)
      (conv1_b): Conv2d(40, 20, kernel_size=(1, 1), stride=(1, 1), bias=False)
      (k1): Sequential(
        (0): Conv2d(20, 20, kernel_size=(3, 3), stride=(1, 1), padding=(1, 1), bias=False)
      )
      (PAConv): PAConv(
        (k2): Conv2d(20, 20, kernel_size=(1, 1), stride=(1, 1))
        (sigmoid): Sigmoid()
        (k3): Conv2d(20, 20, kernel_size=(3, 3), stride=(1, 1), padding=(1, 1), bias=False)
        (k4): Conv2d(20, 20, kernel_size=(3, 3), stride=(1, 1), padding=(1, 1), bias=False)
      )
      (conv3): Conv2d(40, 40, kernel_size=(1, 1), stride=(1, 1), bias=False)
      (lrelu): LeakyReLU(negative_slope=0.2, inplace=True)
    )
    (7): SCPA(
      (conv1_a): Conv2d(40, 20, kernel_size=(1, 1), stride=(1, 1), bias=False)
      (conv1_b): Conv2d(40, 20, kernel_size=(1, 1), stride=(1, 1), bias=False)
      (k1): Sequential(
        (0): Conv2d(20, 20, kernel_size=(3, 3), stride=(1, 1), padding=(1, 1), bias=False)
      )
      (PAConv): PAConv(
        (k2): Conv2d(20, 20, kernel_size=(1, 1), stride=(1, 1))
        (sigmoid): Sigmoid()
        (k3): Conv2d(20, 20, kernel_size=(3, 3), stride=(1, 1), padding=(1, 1), bias=False)
        (k4): Conv2d(20, 20, kernel_size=(3, 3), stride=(1, 1), padding=(1, 1), bias=False)
      )
      (conv3): Conv2d(40, 40, kernel_size=(1, 1), stride=(1, 1), bias=False)
      (lrelu): LeakyReLU(negative_slope=0.2, inplace=True)
    )
    (8): SCPA(
      (conv1_a): Conv2d(40, 20, kernel_size=(1, 1), stride=(1, 1), bias=False)
      (conv1_b): Conv2d(40, 20, kernel_size=(1, 1), stride=(1, 1), bias=False)
      (k1): Sequential(
        (0): Conv2d(20, 20, kernel_size=(3, 3), stride=(1, 1), padding=(1, 1), bias=False)
      )
      (PAConv): PAConv(
        (k2): Conv2d(20, 20, kernel_size=(1, 1), stride=(1, 1))
        (sigmoid): Sigmoid()
        (k3): Conv2d(20, 20, kernel_size=(3, 3), stride=(1, 1), padding=(1, 1), bias=False)
        (k4): Conv2d(20, 20, kernel_size=(3, 3), stride=(1, 1), padding=(1, 1), bias=False)
      )
      (conv3): Conv2d(40, 40, kernel_size=(1, 1), stride=(1, 1), bias=False)
      (lrelu): LeakyReLU(negative_slope=0.2, inplace=True)
    )
    (9): SCPA(
      (conv1_a): Conv2d(40, 20, kernel_size=(1, 1), stride=(1, 1), bias=False)
      (conv1_b): Conv2d(40, 20, kernel_size=(1, 1), stride=(1, 1), bias=False)
      (k1): Sequential(
        (0): Conv2d(20, 20, kernel_size=(3, 3), stride=(1, 1), padding=(1, 1), bias=False)
      )
      (PAConv): PAConv(
        (k2): Conv2d(20, 20, kernel_size=(1, 1), stride=(1, 1))
        (sigmoid): Sigmoid()
        (k3): Conv2d(20, 20, kernel_size=(3, 3), stride=(1, 1), padding=(1, 1), bias=False)
        (k4): Conv2d(20, 20, kernel_size=(3, 3), stride=(1, 1), padding=(1, 1), bias=False)
      )
      (conv3): Conv2d(40, 40, kernel_size=(1, 1), stride=(1, 1), bias=False)
      (lrelu): LeakyReLU(negative_slope=0.2, inplace=True)
    )
    (10): SCPA(
      (conv1_a): Conv2d(40, 20, kernel_size=(1, 1), stride=(1, 1), bias=False)
      (conv1_b): Conv2d(40, 20, kernel_size=(1, 1), stride=(1, 1), bias=False)
      (k1): Sequential(
        (0): Conv2d(20, 20, kernel_size=(3, 3), stride=(1, 1), padding=(1, 1), bias=False)
      )
      (PAConv): PAConv(
        (k2): Conv2d(20, 20, kernel_size=(1, 1), stride=(1, 1))
        (sigmoid): Sigmoid()
        (k3): Conv2d(20, 20, kernel_size=(3, 3), stride=(1, 1), padding=(1, 1), bias=False)
        (k4): Conv2d(20, 20, kernel_size=(3, 3), stride=(1, 1), padding=(1, 1), bias=False)
      )
      (conv3): Conv2d(40, 40, kernel_size=(1, 1), stride=(1, 1), bias=False)
      (lrelu): LeakyReLU(negative_slope=0.2, inplace=True)
    )
    (11): SCPA(
      (conv1_a): Conv2d(40, 20, kernel_size=(1, 1), stride=(1, 1), bias=False)
      (conv1_b): Conv2d(40, 20, kernel_size=(1, 1), stride=(1, 1), bias=False)
      (k1): Sequential(
        (0): Conv2d(20, 20, kernel_size=(3, 3), stride=(1, 1), padding=(1, 1), bias=False)
      )
      (PAConv): PAConv(
        (k2): Conv2d(20, 20, kernel_size=(1, 1), stride=(1, 1))
        (sigmoid): Sigmoid()
        (k3): Conv2d(20, 20, kernel_size=(3, 3), stride=(1, 1), padding=(1, 1), bias=False)
        (k4): Conv2d(20, 20, kernel_size=(3, 3), stride=(1, 1), padding=(1, 1), bias=False)
      )
      (conv3): Conv2d(40, 40, kernel_size=(1, 1), stride=(1, 1), bias=False)
      (lrelu): LeakyReLU(negative_slope=0.2, inplace=True)
    )
    (12): SCPA(
      (conv1_a): Conv2d(40, 20, kernel_size=(1, 1), stride=(1, 1), bias=False)
      (conv1_b): Conv2d(40, 20, kernel_size=(1, 1), stride=(1, 1), bias=False)
      (k1): Sequential(
        (0): Conv2d(20, 20, kernel_size=(3, 3), stride=(1, 1), padding=(1, 1), bias=False)
      )
      (PAConv): PAConv(
        (k2): Conv2d(20, 20, kernel_size=(1, 1), stride=(1, 1))
        (sigmoid): Sigmoid()
        (k3): Conv2d(20, 20, kernel_size=(3, 3), stride=(1, 1), padding=(1, 1), bias=False)
        (k4): Conv2d(20, 20, kernel_size=(3, 3), stride=(1, 1), padding=(1, 1), bias=False)
      )
      (conv3): Conv2d(40, 40, kernel_size=(1, 1), stride=(1, 1), bias=False)
      (lrelu): LeakyReLU(negative_slope=0.2, inplace=True)
    )
    (13): SCPA(
      (conv1_a): Conv2d(40, 20, kernel_size=(1, 1), stride=(1, 1), bias=False)
      (conv1_b): Conv2d(40, 20, kernel_size=(1, 1), stride=(1, 1), bias=False)
      (k1): Sequential(
        (0): Conv2d(20, 20, kernel_size=(3, 3), stride=(1, 1), padding=(1, 1), bias=False)
      )
      (PAConv): PAConv(
        (k2): Conv2d(20, 20, kernel_size=(1, 1), stride=(1, 1))
        (sigmoid): Sigmoid()
        (k3): Conv2d(20, 20, kernel_size=(3, 3), stride=(1, 1), padding=(1, 1), bias=False)
        (k4): Conv2d(20, 20, kernel_size=(3, 3), stride=(1, 1), padding=(1, 1), bias=False)
      )
      (conv3): Conv2d(40, 40, kernel_size=(1, 1), stride=(1, 1), bias=False)
      (lrelu): LeakyReLU(negative_slope=0.2, inplace=True)
    )
    (14): SCPA(
      (conv1_a): Conv2d(40, 20, kernel_size=(1, 1), stride=(1, 1), bias=False)
      (conv1_b): Conv2d(40, 20, kernel_size=(1, 1), stride=(1, 1), bias=False)
      (k1): Sequential(
        (0): Conv2d(20, 20, kernel_size=(3, 3), stride=(1, 1), padding=(1, 1), bias=False)
      )
      (PAConv): PAConv(
        (k2): Conv2d(20, 20, kernel_size=(1, 1), stride=(1, 1))
        (sigmoid): Sigmoid()
        (k3): Conv2d(20, 20, kernel_size=(3, 3), stride=(1, 1), padding=(1, 1), bias=False)
        (k4): Conv2d(20, 20, kernel_size=(3, 3), stride=(1, 1), padding=(1, 1), bias=False)
      )
      (conv3): Conv2d(40, 40, kernel_size=(1, 1), stride=(1, 1), bias=False)
      (lrelu): LeakyReLU(negative_slope=0.2, inplace=True)
    )
    (15): SCPA(
      (conv1_a): Conv2d(40, 20, kernel_size=(1, 1), stride=(1, 1), bias=False)
      (conv1_b): Conv2d(40, 20, kernel_size=(1, 1), stride=(1, 1), bias=False)
      (k1): Sequential(
        (0): Conv2d(20, 20, kernel_size=(3, 3), stride=(1, 1), padding=(1, 1), bias=False)
      )
      (PAConv): PAConv(
        (k2): Conv2d(20, 20, kernel_size=(1, 1), stride=(1, 1))
        (sigmoid): Sigmoid()
        (k3): Conv2d(20, 20, kernel_size=(3, 3), stride=(1, 1), padding=(1, 1), bias=False)
        (k4): Conv2d(20, 20, kernel_size=(3, 3), stride=(1, 1), padding=(1, 1), bias=False)
      )
      (conv3): Conv2d(40, 40, kernel_size=(1, 1), stride=(1, 1), bias=False)
      (lrelu): LeakyReLU(negative_slope=0.2, inplace=True)
    )
  )
  (trunk_conv): Conv2d(40, 40, kernel_size=(3, 3), stride=(1, 1), padding=(1, 1))
  (upconv1): Conv2d(40, 24, kernel_size=(3, 3), stride=(1, 1), padding=(1, 1))
  (att1): PA(
    (conv): Conv2d(24, 24, kernel_size=(1, 1), stride=(1, 1))
    (sigmoid): Sigmoid()
  )
  (HRconv1): Conv2d(24, 24, kernel_size=(3, 3), stride=(1, 1), padding=(1, 1))
  (upconv2): Conv2d(24, 24, kernel_size=(3, 3), stride=(1, 1), padding=(1, 1))
  (att2): PA(
    (conv): Conv2d(24, 24, kernel_size=(1, 1), stride=(1, 1))
    (sigmoid): Sigmoid()
  )
  (HRconv2): Conv2d(24, 24, kernel_size=(3, 3), stride=(1, 1), padding=(1, 1))
  (conv_last): Conv2d(24, 3, kernel_size=(3, 3), stride=(1, 1), padding=(1, 1))
  (lrelu): LeakyReLU(negative_slope=0.2, inplace=True)
)
20-10-13 17:55:03.186 - INFO: Loading model for G [../experiments/pretrained_models/PANx4_DF2K.pth] ...
20-10-13 17:55:03.203 - INFO: Model [SRModel] is created.
20-10-13 17:55:03.203 - INFO: 
Testing [Set5]...
20-10-13 17:55:04.175 - INFO: baby                 - PSNR: 29.296572 dB; SSIM: 0.842833; PSNR_Y: 30.787877 dB; SSIM_Y: 0.871325.
…
